net.pkl (torch, 3184 bytes, 3 tensors)

weight f4 [10, 1]
0	0x3f0cf74e	0.55064857
1	0xbd0cff20	-0.034422994
2	0xbf5c35a6	-0.8601936
3	0x3f332181	0.69973
4	0x3f5f7605	0.8728946
5	0x3f3f9e60	0.74851036
6	0xbf2fb032	-0.6862823
7	0xbf022670	-0.508399
8	0xbef4c123	-0.47803602
9	0x3f54cac2	0.83121884

bias f4 [10]
0	0xbf0dad5d	-0.55342656
1	0xbf12b8aa	-0.57313025
2	0xbe8b6c42	-0.27231032
3	0xbe94d36b	-0.2906755
4	0x3d906805	0.0705109
5	0xbdeeecf5	-0.1166629
6	0xbf2e0fd6	-0.67992914
7	0x3e09bfd3	0.13452081
8	0x3d872cbc	0.06600329
9	0xbd5a93d9	-0.053363655

weight f4 [1, 10]
0	0xbe90a136	-0.28247994
1	0x3e182afe	0.1486015
2	0x3f5884da	0.84577715
3	0x3ec6ed12	0.38852745
4	0x3eba1608	0.36344934
5	0x3ebda543	0.37040147
6	0xbd9f286e	-0.07771383
7	0x3eec4316	0.46144933
8	0x3edacf05	0.42736068
9	0x3ec06994	0.3758055
