net.pkl (torch, 2992 bytes, 3 tensors)

weight f4 [10, 1]
00000000: 4ae8 033f 54fc e1be a083 46be 2051 f03e
00000010: 0202 71bf 1287 193f a8a9 52be 0a3d 023f
00000020: 785a 0e3e 00c4 fabd
0.5152632 -0.44137824 -0.19386148 0.46936893 -0.9414369 0.59971726 -0.20572531 0.5087439
0.13901699 -0.12244415

bias f4 [10]
00000000: 4002 8e3e 2010 4a3d 30ff ba3e e486 c7be
00000010: 3051 95bd 4060 b8bd 306c 143e 00e7 82bb
00000020: 64c9 5f3f 5054 9f3e
0.27736092 0.049331784 0.36522818 -0.389701 -0.07290876 -0.09002733 0.14494395 -0.0039948225
0.8741667 0.31119013

weight f4 [1, 10]
00000000: e02e f1bd b692 43be 781b 59bd f1ac 0bbe
00000010: 9488 cfbd 0014 783c 5209 413e ac01 303e
00000020: 1f46 9ebe aebd 483e
-0.11776519 -0.19098935 -0.053004712 -0.1364019 -0.10133472 0.015141487 0.18851212 0.17188138
-0.30912873 0.19603607
